dqn_cartpole.pth (torch, 72657 bytes, 6 tensors)

fc1.weight f4 [128, 4]
0	0xbecc657c	-0.39921176
1	0x3e93566e	0.28776878
2	0xbeb5e98e	-0.3552975
3	0xbe962dd4	-0.2933184
4	0xbf79b4c0	-0.9754143
5	0xbdefb3e1	-0.11704231
6	0xbf0fc245	-0.56155807
7	0xbe96e4cc	-0.29471433
8	0x3a98f673	0.0011670127
9	0x3eb4a6a2	0.3528338
10	0x4039c7f0	2.9028282
11	0x3f84042e	1.0313776
12	0x4009ca66	2.1529784
13	0xbf14fe3f	-0.5820045
14	0x3e74087e	0.23831365
15	0xbe855091	-0.2603803
16	0xbf3a6f21	-0.7282582
17	0xbf7d56ef	-0.98960775
18	0xbf81c3bb	-1.0137857
19	0xbeb859ef	-0.36006114
20	0xbf7d51dc	-0.9895303
21	0xbf140303	-0.57817096
22	0xbf98545c	-1.1900744
23	0xbe4186a2	-0.18899015
24	0xbe7f0ab4	-0.24906427
25	0xbf92fdf4	-1.148375
26	0xbfc70075	-1.5547014
27	0xbe9407a6	-0.28912085
28	0x3fc946be	1.5724714
29	0xbeeac439	-0.4585283
30	0xc0a61556	-5.1901045
31	0xbfb6c493	-1.427874
32	0xbf0d0527	-0.55085987
33	0xbe2844cc	-0.16432494
34	0xbe18584b	-0.14877431
35	0x3e86a866	0.26300353
36	0xbf9cc428	-1.2247362
37	0xbf899970	-1.074995
38	0xc0953b66	-4.663501
39	0xbf6ff826	-0.9373802
40	0x3f90459f	1.1271247
41	0x3f8bad30	1.0912228
42	0x4086d96e	4.2140417
43	0x3f984a28	1.1897631
44	0xbff26ae1	-1.8938867
45	0xbecc5ef6	-0.399162
46	0x3d9f75ef	0.07786166
47	0x3e126fab	0.1430041
48	0x3f1eaeae	0.6198529
49	0x3e9ea20d	0.3098301
50	0x4082bd41	4.0856023
51	0x3f7f8d7b	0.9982526
52	0xbfcd63f6	-1.6046131
53	0xbf98bc94	-1.193255
54	0xc072b8fc	-3.7925406
55	0xbf8baaf8	-1.091155
56	0xbf89bf62	-1.076153
57	0xbdca6f21	-0.098844774
58	0xbf7c3859	-0.9852348
59	0xbe9cdfec	-0.3063959
60	0x3f217afd	0.6307829
61	0xbe6aff0b	-0.22948854
62	0x4041e0c4	3.0293436
63	0x3f85f2f6	1.0464771
64	0xbf8beb3c	-1.0931163
65	0xbf8ba3f8	-1.0909414
66	0xbdbea16b	-0.09308132
67	0xbc5efb8a	-0.013609776
68	0xbf856b7c	-1.0423427
69	0xbef26175	-0.4733998
70	0xbf54c2bd	-0.8310965
71	0xbee8ecf7	-0.4549329
72	0xc0045589	-2.0677207
73	0x3e956cfc	0.2918471
74	0x40a3f2dc	5.123396
75	0x3ff71c82	1.9305575
76	0xbf4784e0	-0.77937126
77	0xbf404a50	-0.7511339
78	0xbef2faa2	-0.47456843
79	0xbf08188e	-0.5316247
80	0xc008c362	-2.1369252
81	0xbe504e0e	-0.20342276
82	0xbf24c6dc	-0.64365935
83	0xbe8a70ea	-0.27039272
84	0xbf589250	-0.84598255
85	0xbe6ad374	-0.22932225
86	0xbea100ee	-0.31446022
87	0xbf0d8f6d	-0.55296975
88	0xc003c9f1	-2.0592005
89	0xbfd2b5eb	-1.6461767
90	0xc08a231e	-4.316787
91	0xbfdbf191	-1.7183095
92	0xbf36d991	-0.7142573
93	0xbeed9532	-0.4640289
94	0xbec0819a	-0.37598878
95	0xbf3945d5	-0.7237218
96	0xbfdc5094	-1.721209
97	0xbf5c228f	-0.8599023
98	0x3f6d2f29	0.92650086
99	0xbdcba8b5	-0.09944288
100	0xc001acef	-2.02618
101	0xbf14b4b0	-0.5808821
102	0x40059c5b	2.0876682
103	0xbcbb0a9e	-0.022832211
104	0x402846c7	2.62932
105	0x3ece2dab	0.40269217
106	0xc069a9fc	-3.651
107	0xbed4356f	-0.41447017
108	0xbf5e5175	-0.86843044
109	0xbf301899	-0.68787533
110	0xbfaf4c4b	-1.3695158
111	0xbe8c6d12	-0.27426964
112	0xbf87472c	-1.0568595
113	0xbea75999	-0.32685545
114	0xbf39bc81	-0.7255326
115	0xbe2b0772	-0.16702059
116	0xbf7f55fe	-0.9974059
117	0xbf370593	-0.7149288
118	0xbf39cc1c	-0.7257707
119	0xbf0f293c	-0.55922294
120	0xbfda822a	-1.7070973
121	0x3efeb86e	0.49750084
122	0x3e89c040	0.26904488
123	0xbf661405	-0.898743
124	0xbf9e77b7	-1.2380284
125	0xbf998ff2	-1.1997054
126	0x3e2c6c24	0.16838127
127	0x3f3e7326	0.7439445
128	0xbeed2ad0	-0.46321726
129	0xbe908632	-0.28227383
130	0x40a076d0	5.0145035
131	0x3f85a028	1.0439501
132	0xbf87bd67	-1.0604676
133	0xbfad1e44	-1.3524861
134	0xbeb66649	-0.35624912
135	0xbeb3f81d	-0.35150233
136	0x3f4b79cd	0.7948273
137	0xbef9263a	-0.48661977
138	0xc0a88e23	-5.2673507
139	0xbf89092b	-1.0705923
140	0xbe483ebb	-0.1955518
141	0x3f534a9e	0.8253573
142	0x4087822e	4.234641
143	0x3fadc458	1.3575544
144	0x406c31ad	3.690532
145	0x3f4d9b84	0.80315423
146	0xc002a6e8	-2.0414371
147	0xbe988f50	-0.2979684
148	0xbf8e1b54	-1.110209
149	0xbf8f83a5	-1.121205
150	0xbf9c088a	-1.2190106
151	0xbdbbf99d	-0.09178469
152	0xbf8d7625	-1.105168
153	0xbf2a839d	-0.66607076
154	0x404485ba	3.070662
155	0x3f73d27a	0.95243037
156	0x406a39e7	3.659784
157	0x3d3e51b4	0.046464637
158	0xc05277f4	-3.2885714
159	0xbf499a5e	-0.7875117
160	0x3e75bdbb	0.23998158
161	0x3f30ffc9	0.691403
162	0x40c81a16	6.2531843
163	0x3fadbd03	1.3573307
164	0xbf870a22	-1.0549967
165	0xbf9d18d9	-1.2273208
166	0xc08cf49f	-4.404861
167	0xbf9ed595	-1.240893
168	0xbf84d9fe	-1.0379026
169	0xbeee55bc	-0.46549785
170	0xbf8b6175	-1.0889117
171	0xbe549f35	-0.20763858
172	0xbfcb725e	-1.5894277
173	0xbfb116a2	-1.3835032
174	0xc07ba895	-3.9321644
175	0xbfacb53e	-1.3492811
176	0x3c0fc0c0	0.0087739825
177	0x3b6f7a00	0.0036541224
178	0x3ed45a5a	0.41475183
179	0x3ce919e0	0.028454721
180	0xbed94962	-0.424388
181	0xbde6c133	-0.112673186
182	0xbf1b86cc	-0.6075256
183	0xbe98fefe	-0.29882044
184	0x3e60e248	0.2196132
185	0xbee49615	-0.44645754
186	0xbfc208f2	-1.515898
187	0xbec3b1a2	-0.3822146
188	0x3f7446f7	0.95420784
189	0x3f8af2c9	1.0855342
190	0x4080b766	4.0223875
191	0x3fcc1341	1.5943376
192	0xbf2720ca	-0.6528441
193	0xbf2566a2	-0.6460973
194	0xbf154bd9	-0.5831886
195	0x3ce1ed45	0.02757896
196	0xbf9f2d01	-1.2435609
197	0xbf59a781	-0.85021216
198	0xc0907512	-4.514291
199	0xbfa4ff36	-1.2890384
200	0xbf397f7d	-0.72460157
201	0xbf862b17	-1.04819
202	0xbf851039	-1.0395576
203	0xbf4e7c1b	-0.8065812
204	0x3f0c5e88	0.54831743
205	0x3f0f21b9	0.5591083
206	0x408fd9b2	4.495324
207	0x3f8b9505	1.0904852
208	0xc008fd22	-2.14045
209	0xbda06122	-0.078310266
210	0x3f8d97b4	1.1061921
211	0x3e0937b1	0.13400151
212	0x3f56ff3a	0.83983195
213	0xbf017544	-0.5056956
214	0xc0649532	-3.5716062
215	0xbfd95d96	-1.6981685
216	0xbf3ba06c	-0.7329166
217	0xbec6fe76	-0.38866013
218	0xbea89a4e	-0.32930225
219	0xbf31e0b9	-0.69483525
220	0x3e467e58	0.19384134
221	0xbe0aa22b	-0.13538425
222	0xc0993716	-4.7879744
223	0xbfce49e4	-1.61163
224	0xc005d144	-2.0908976
225	0xbe1e7875	-0.15475638
226	0xbe5f4b86	-0.21806154
227	0x3e89e612	0.26933342
228	0xbf511707	-0.8167576
229	0xbf8d6872	-1.1047499
230	0xbf81ad09	-1.0130931
231	0xbf16d0e4	-0.5891249
232	0x3f04e63e	0.5191382
233	0x3fa787d6	1.3088329
234	0xbf731547	-0.9495434
235	0xbe0222bb	-0.12708561
236	0xbf5e8190	-0.86916447
237	0xbf2c98c0	-0.6742058
238	0xbecf875b	-0.40532956
239	0xbeee66b7	-0.4656274
240	0x3f0c02b7	0.5469164
241	0x3eefb879	0.4682043
242	0x408b76d3	4.358255
243	0x3f839568	1.027997
244	0xbf5120cd	-0.81690675
245	0xbfac9b70	-1.3484936
246	0xbf61dc12	-0.88226426
247	0xbebbf1e5	-0.36707988
248	0x3e73aaea	0.23795667
249	0xbd339729	-0.04384533
250	0xc0947d2f	-4.640281
251	0xbfb5d2ff	-1.4205016
252	0xbfc40fbd	-1.5317303
253	0xbf9418d8	-1.1570082
254	0xc0a25b42	-5.07364
255	0xbfc71d1e	-1.5555761

fc1.bias f4 [128]
0	0x3fd81199	1.688037
1	0x3ff8239c	1.9385867
2	0x3f7dd88a	0.9915854
3	0x3fac5c22	1.3465617
4	0x40095abb	2.1461627
5	0x400f1f19	2.236273
6	0x3fe49008	1.7856455
7	0xbf72a643	-0.94784945
8	0x3fe73029	1.8061572
9	0x3e0a48a3	0.13504271
10	0x3d9416b0	0.0723089
11	0xc0100381	-2.2502139
12	0xbf007959	-0.5018516
13	0xbdd0ae07	-0.10189443
14	0x3fe8b725	1.8180891
15	0xbf4f646f	-0.81012625
16	0x4000cee5	2.0126278
17	0x40085b1e	2.1305614
18	0x401676fd	2.3510125
19	0x4008778e	2.132297
20	0xbfa795dc	-1.3092608
21	0x3fe3e293	1.780352
22	0xbdf077b2	-0.1174158
23	0x3ff79f9a	1.9345582
24	0xc00f21d6	-2.2364402
25	0xbfbb2173	-1.4619583
26	0xbe76445d	-0.24049516
27	0x400ab5db	2.1673496
28	0x3fe5fc02	1.7967532
29	0x40070bbc	2.1100912
30	0x3f4ad8de	0.79237163
31	0x3fc6dd2d	1.5536247
32	0x3fcb3885	1.5876623
33	0x400b8e59	2.1805632
34	0xbf836f37	-1.0268315
35	0x3f8bebe2	1.0931361
36	0xbeef953d	-0.46793547
37	0x4003f546	2.0618453
38	0x3fd020cf	1.6260012
39	0xbf25d487	-0.64777416
40	0xbf858b03	-1.0433048
41	0x3edd7650	0.43254328
42	0x40035beb	2.0524852
43	0x3da2fbc1	0.079581745
44	0xbe4c6b20	-0.1996274
45	0x40089cd6	2.1345725
46	0x3fed9ea3	1.8564037
47	0xbef0b2e0	-0.4701147
48	0x4009466e	2.1449237
49	0xbfadf3a6	-1.3589981
50	0x4008e766	2.1391234
51	0xbf35b569	-0.70979935
52	0xbfd07883	-1.6286777
53	0xbff1c024	-1.8886762
54	0x3ff3ec9b	1.9056581
55	0x40246750	2.5688057
56	0xc038a7da	-2.8852448
57	0x3ff72712	1.9308798
58	0x3f407a7f	0.75186914
59	0x400de057	2.2168176
60	0xbf2e9216	-0.6819166
61	0x4006f5b9	2.1087477
62	0x4017d81a	2.3725648
63	0x3f034b3e	0.51286685
64	0x4009ba01	2.1519778
65	0xbf1d4307	-0.614304
66	0x40019147	2.024492
67	0xbee13aab	-0.43990073
68	0x3e873bcd	0.26412812
69	0x4009951a	2.1497254
70	0x3e987302	0.29775244
71	0x3f8bfb8b	1.093614
72	0x3fe42757	1.7824506
73	0x40079811	2.1186564
74	0xbef4e631	-0.47831872
75	0xbf387232	-0.7204925
76	0xbf89f67f	-1.077835
77	0x3fef5102	1.8696597
78	0x400b17b8	2.1733227
79	0xbf8a4832	-1.0803282
80	0x40002e6f	2.002834
81	0xbdd94c7c	-0.10610291
82	0xbf8ab7f2	-1.0837386
83	0x3ff89753	1.942118
84	0x3ff4fcdf	1.913967
85	0x40075fb9	2.1152174
86	0x3faebfeb	1.3652319
87	0x40062380	2.0959167
88	0x3f9532dd	1.1656147
89	0x3fc2cf4b	1.5219511
90	0x3fd29636	1.6452091
91	0x400d697a	2.2095628
92	0x3ff84928	1.9397326
93	0x3fded731	1.7409421
94	0x400573f0	2.0852013
95	0x3d0caed3	0.034346413
96	0x3fe7ae50	1.8100071
97	0x3fc566a6	1.5421951
98	0xbf69b5f1	-0.91293246
99	0x3feed294	1.8658013
100	0x3fb34611	1.4005758
101	0x3f8a6b01	1.0813905
102	0xbf57818c	-0.8418205
103	0xc014b72e	-2.3236804
104	0xbbeba56e	-0.0071913516
105	0x40078b91	2.1178935
106	0x3fb1b523	1.3883404
107	0x400868c2	2.131394
108	0x40090f43	2.1415565
109	0x3f1b2cd4	0.6061528
110	0x40086910	2.1314125
111	0x3f256a32	0.64615166
112	0x3fd140e9	1.6347934
113	0x3f9ddb3e	1.2332532
114	0x3f58ac41	0.8463784
115	0x3f5ebf24	0.8701041
116	0x3fc0aaa5	1.5052077
117	0x4009e263	2.1544425
118	0x3fd8d8f2	1.6941206
119	0x400904dd	2.1409218
120	0x3fed06b5	1.8517672
121	0x3ffeeae5	1.9915434
122	0x3ea92df0	0.3304286
123	0x3f9c5ca3	1.221577
124	0x3fefef2e	1.8744867
125	0x3fffbb72	1.9979079
126	0x3fe776da	1.8083146
127	0x40089d26	2.1345916

fc2.weight f4 [128, 128]
0	0x3f81e9f9	1.0149528
1	0x3f0e2b31	0.55534655
2	0xc0b29606	-5.5808134
3	0x3f920343	1.1407245
4	0x3f3bd8dc	0.73377776
5	0x3f84a11a	1.0361664
6	0x3f915c49	1.1356288
7	0xc039684c	-2.8969908
8	0x3f3692c8	0.7131772
9	0xc08e2e35	-4.4431405
10	0xc0bed856	-5.963908
11	0xc08b131b	-4.346082
12	0xc0b23e7e	-5.5701284
13	0xc01ed2a1	-2.4816058
14	0x3f07fa4d	0.53116304
15	0xc02ff9a3	-2.7496116
16	0x3eedbd8f	0.46433684
17	0x3f72abd4	0.9479344
18	0xc0157677	-2.3353555
19	0x3f06bff4	0.5263665
20	0xc08c8d7c	-4.392271
21	0x3ee475b6	0.44621056
22	0xc006eb97	-2.1081293
23	0x3effca83	0.49959192
24	0xc04bc113	-3.1836593
25	0xc02c23af	-2.689678
26	0xc0399507	-2.899721
27	0x3f893fa1	1.0722543
28	0x3f4e7a4e	0.8065537
29	0x3f42b54c	0.7605789
30	0x3f647f90	0.89257145
31	0x3f267212	0.6501781
32	0xc0986d82	-4.7633677
33	0x3f2cd6a5	0.6751502
34	0xc09e1e1a	-4.9411745
35	0xc0c60160	-6.187668
36	0xbfebaf23	-1.8412822
37	0x3f20d8cf	0.62830824
38	0xc0290241	-2.6407626
39	0xc06fa310	-3.7443275
40	0xc090b5b4	-4.5221806
41	0xc07ac4df	-3.918266
42	0x3f729f1b	0.94774026
43	0xc048fec2	-3.1405492
44	0x3daa4f2b	0.08315881
45	0x3f70d72b	0.9407832
46	0x3f8b1341	1.0865251
47	0xc0ab6aa9	-5.35677
48	0x3f4ca1fe	0.7993468
49	0xc087abc2	-4.2397165
50	0x3f7f4a4b	0.9972274
51	0xc0aef80f	-5.4677806
52	0xc07a9a2c	-3.91566
53	0xbf3ec784	-0.74523187
54	0x3ed104ee	0.40824074
55	0xbdd7e797	-0.10542219
56	0xc0837866	-4.108447
57	0x3f39674d	0.7242325
58	0xbf4085da	-0.7520424
59	0x3f19d2a3	0.6008703
60	0xc0b824e6	-5.754504
61	0x3f3738af	0.7157087
62	0xbe0ede87	-0.13952075
63	0xc01d8991	-2.4615214
64	0x3f6d5cef	0.9271993
65	0xbfde4977	-1.736617
66	0x3f51f0b6	0.8200792
67	0xbc9a40a4	-0.018829651
68	0xbff6fb5e	-1.9295461
69	0x3f79c876	0.97571504
70	0x3fe88590	1.816576
71	0xc0b996bc	-5.79965
72	0x3f6a3a92	0.9149562
73	0xc02b9e38	-2.681532
74	0xc05c934a	-3.4464898
75	0xc08e99b9	-4.456265
76	0xc044ee82	-3.0770574
77	0x3f38c31e	0.72172725
78	0x3f7ead1a	0.9948288
79	0xc08687c6	-4.204074
80	0x3f6efc84	0.9335406
81	0xbfecd760	-1.8503227
82	0xc085a9e2	-4.1769876
83	0x3f169025	0.588137
84	0x3f94f51a	1.1637299
85	0x3f32199b	0.6957032
86	0x3f9e860e	1.238466
87	0x3ecbdf67	0.3981888
88	0x3f3fbce6	0.7489761
89	0x3f4e2e8e	0.80539787
90	0xbdfe445b	-0.124153815
91	0x3f53f8e3	0.82801646
92	0xbeca0ed2	-0.39464432
93	0xbfb9a00c	-1.4501967
94	0x3f45035d	0.76958257
95	0xc0136ae7	-2.3033998
96	0x3f693cbf	0.91108316
97	0x3f59717a	0.84938776
98	0xc09d7826	-4.9209166
99	0x3f45d985	0.77285033
100	0xc05507b6	-3.3285956
101	0x3f4dd3ba	0.80401194
102	0xc0808c30	-4.0171127
103	0xc0832673	-4.0984435
104	0xc099ec20	-4.810074
105	0x3f354288	0.70804644
106	0xc08eb923	-4.4600997
107	0x3f5a3ec2	0.8525201
108	0x3eccbfe8	0.39990163
109	0xc0708736	-3.7582526
110	0x3f3b9f87	0.73290294
111	0xc029ccdd	-2.6531289
112	0x3f520b16	0.82048166
113	0x3f622055	0.88330585
114	0x3fe6ab0a	1.8020947
115	0xc02571ec	-2.5850782
116	0xc0a94ca6	-5.2906065
117	0x3f62a811	0.885377
118	0xbf61927d	-0.8811415
119	0x3f480156	0.7812704
120	0x3f1c63d6	0.6108984
121	0x3dc8ac8d	0.097985364
122	0xc06e897f	-3.727142
123	0x3f4935c7	0.7859768
124	0x3f563cdb	0.8368661
125	0x3ef39a3b	0.47578606
126	0x3f51cf6c	0.81957126
127	0x3f43ed9f	0.76534456
128	0xbcfae019	-0.030624436
129	0x3d3344f5	0.043766934
130	0xbc289d87	-0.010291464
131	0x3dbd490a	0.09242447
132	0xbc84ede0	-0.016226709
133	0xbd284b97	-0.041087713
134	0x3c41330a	0.011791954
135	0xbd164765	-0.03668918
136	0xbdaba0ac	-0.08380255
137	0x3d2a63a5	0.041598935
138	0xbd0b3806	-0.033988975
139	0xbd3c116b	-0.04591505
140	0x3c1d268d	0.009591711
141	0xbc9992ac	-0.018746696
142	0xbdbd1056	-0.092316315
143	0xbd820a87	-0.06349664
144	0x3d03412b	0.03204457
145	0xbdd11943	-0.102098964
146	0x3d04c036	0.03240987
147	0xbda4d353	-0.080481194
148	0xbc1dfd80	-0.009642959
149	0xbdd0c20e	-0.10193263
150	0x3bf963a6	0.007610756
151	0xbd558717	-0.052130785
152	0x3d065c2e	0.032802753
153	0xbc89fb9b	-0.016843608
154	0x3c8f6479	0.017503964
155	0x3d186dad	0.03721397
156	0xbdb37515	-0.08762566
157	0xbdee227a	-0.1162767
158	0xba599dfe	-0.0008301436
159	0xbc8fc7b0	-0.017551273
160	0x3d9dcbc3	0.0770488
161	0xbdbdf139	-0.09274525
162	0xbc4102d1	-0.011780457
163	0x3d04e27f	0.032442566
164	0x3c146820	0.009058028
165	0xbda0cd04	-0.078516036
166	0x3d9598de	0.07304548
167	0xbda5b142	-0.0809045
168	0xbcbe29dc	-0.02321332
169	0x3da6256b	0.08112606
170	0xbdd41b01	-0.10356713
171	0xbd6eccfc	-0.058300957
172	0xbc58d100	-0.013233423
173	0xbd4c9816	-0.049949728
174	0xbdc01c1b	-0.09380361
175	0x3d0df868	0.034660727
176	0x3d2d535e	0.042315833
177	0xbda7e6b4	-0.081983
178	0xbdcc0228	-0.09961349
179	0xbc006a13	-0.00783779
180	0x3d390a9a	0.045176126
181	0xbe0440cc	-0.12915343
182	0xbc9d1609	-0.019175546
183	0x3d294a1e	0.04133045
184	0xbd135e27	-0.035978463
185	0xbbe58ba4	-0.007005172
186	0xbb2aa2b7	-0.0026036927
187	0xbd7fc00e	-0.062439017
188	0x3d812886	0.06306557
189	0xbd4365fa	-0.047704674
190	0xbdb980c8	-0.09057766
191	0x3c47864d	0.012178016
192	0xbc3487a9	-0.011018672
193	0x3d447dcb	0.047971528
194	0x3d30881f	0.043098565
195	0xbd4bbf7d	-0.049743164
196	0xbd8328cb	-0.06404265
197	0xbd09d3d1	-0.03364927
198	0x3d19b2df	0.0375241
199	0xbd3052ee	-0.043047838
200	0x3b11dd47	0.0022257136
201	0xbde634f0	-0.11240566
202	0xbdad2593	-0.08454432
203	0x3d69deb5	0.057097156
204	0xbd8f80d8	-0.07006997
205	0xbdcc5592	-0.09977259
206	0x3c44e49c	0.012017395
207	0xbc275add	-0.010214535
208	0xbcb394da	-0.021921564
209	0xbd9a5975	-0.07536594
210	0x3d856a69	0.06514437
211	0x3c832054	0.016006626
212	0xbcc29225	-0.023751328
213	0xbca27288	-0.019830003
214	0x3d9bdf6d	0.076109745
215	0xbd1a17eb	-0.037620466
216	0xbd590c2c	-0.052990124
217	0x3db554b7	0.08854049
218	0xbcae34cf	-0.021265415
219	0xbca7b39f	-0.020471392
220	0xbd95794f	-0.072985284
221	0xbda55009	-0.08071906
222	0x3cd42a4d	0.025899077
223	0xbafa27c0	-0.0019085333
224	0xbd2ea99f	-0.042642232
225	0xbdb3aca4	-0.08773163
226	0xbd834d03	-0.06411173
227	0xbd990164	-0.07470968
228	0xbd6429f1	-0.05570406
229	0xbdc0bb8a	-0.0941077
230	0xbb902d90	-0.0043999627
231	0x3c547078	0.012966268
232	0xbd80d0f4	-0.06289855
233	0xbdb4c7d3	-0.08827176
234	0x3b1d0749	0.002396064
235	0xbcbfb108	-0.023399845
236	0x3d23d8f5	0.04000183
237	0xbcd5fb52	-0.026120815
238	0xbc893f4c	-0.016753815
239	0xbca34f90	-0.0199354
240	0xbb2e5029	-0.0026598072
241	0xbd0d7bcf	-0.0345419
242	0xbd2aabcf	-0.041667756
243	0xbc17851f	-0.009248047
244	0x3ca5108c	0.020149492
245	0xbd07fab4	-0.033198074
246	0x3c1740a2	0.009231718
247	0xbdb846f7	-0.089979105
248	0x3a28432e	0.0006418702
249	0xbdcf19fd	-0.10112379
250	0xbc3aae99	-0.011394166
251	0xbc412837	-0.011789373
252	0x3c24445e	0.010026066
253	0x3c5f099e	0.013613133
254	0x3d105c21	0.03524411
255	0xbcd4b0ff	-0.025963305

fc2.bias f4 [128]
0	0x3f1009f8	0.5626521
1	0xbd8e9f96	-0.06964032
2	0x3f6cbbac	0.92473865
3	0x3f3f8a5d	0.748205
4	0x3f25f9da	0.6483437
5	0xbda55030	-0.08071935
6	0xbdc7545a	-0.09732886
7	0x3f4516fd	0.769882
8	0x3f4a63a8	0.79058313
9	0x3f379926	0.7171806
10	0xbd0cefba	-0.03440831
11	0x3f71671b	0.9429795
12	0xbc9dc57f	-0.019259213
13	0x3f1b36be	0.60630405
14	0x3d163e31	0.036680404
15	0x3f295e7d	0.661598
16	0x3f8b5647	1.0885705
17	0x3f0ac5f8	0.54208326
18	0x3f24b919	0.64344937
19	0x3f54c6c0	0.8311577
20	0x3f49a80b	0.7877204
21	0xbc38609d	-0.011253503
22	0x3f4e0f9f	0.80492586
23	0xbdfab6e9	-0.122419186
24	0x3f731629	0.9495569
25	0x3f69e4d1	0.9136477
26	0x3f3a3b4c	0.7274673
27	0x3f564ce3	0.8371107
28	0x3f58e63c	0.8472631
29	0x3f38b531	0.72151476
30	0x3f8927f3	1.0715317
31	0x3f337456	0.7009939
32	0xbc92c528	-0.017916277
33	0x3fdd2cd8	1.727931
34	0xbd0ae42f	-0.03390902
35	0x3f46c60f	0.77645963
36	0x3f92fb55	1.148295
37	0xbfb0cb72	-1.3812087
38	0xbd1a6dae	-0.037702255
39	0x3cde47bb	0.027133813
40	0x3f80636e	1.0030344
41	0x3f385bbe	0.7201499
42	0x3f3ccabb	0.7374684
43	0xbdcbb996	-0.09947507
44	0x3f919fff	1.1376952
45	0xbda87e7e	-0.082272515
46	0x3f4a307f	0.7898025
47	0x3fd967b4	1.6984773
48	0x3fe30901	1.7737123
49	0x3f6134fa	0.8797146
50	0x3f22e6f2	0.63633645
51	0xbd0c0286	-0.034182094
52	0x3f201aa1	0.6254063
53	0x3f36f0e9	0.7146135
54	0xbe004da9	-0.12529625
55	0x3f2ee9a1	0.6832524
56	0x3d204807	0.03913119
57	0xbdd04551	-0.10169471
58	0xbca23758	-0.01980178
59	0xbb2a4020	-0.0025978163
60	0x3f14abc7	0.5807461
61	0xbde25563	-0.110514425
62	0x3fedf8aa	1.8591511
63	0xbda8785b	-0.08226081
64	0x3fc83387	1.5640725
65	0xbcc944ad	-0.02456888
66	0x3f2e8701	0.6817475
67	0x3f295c22	0.6615621
68	0x3fc02358	1.5010786
69	0x3f2dd762	0.67906773
70	0xbd849918	-0.06474513
71	0xbca80730	-0.02051124
72	0x3fbe9dc1	1.4891893
73	0x3f1f823c	0.62308097
74	0x3d40f66f	0.047110017
75	0x3c9dd1a4	0.019265004
76	0xbd8d8363	-0.06909826
77	0xbdb3ae42	-0.087734714
78	0x3f33d873	0.7025215
79	0x3f28f04f	0.6599168
80	0xbe0c7907	-0.13718043
81	0xbd3b981f	-0.04579937
82	0x3f21e738	0.63243437
83	0x3f8dec1a	1.1087677
84	0x3f3ad0d9	0.72974926
85	0xbd626cc9	-0.055279527
86	0xbd49b451	-0.04924423
87	0x3f3c9f3a	0.7368046
88	0x3ed83fc7	0.42236158
89	0x3f965fbe	1.1747968
90	0x3f3dffd5	0.74218494
91	0x3f585397	0.8450255
92	0xbd348674	-0.044073537
93	0x3fe25f78	1.7685385
94	0xbd35b779	-0.044364426
95	0xbd09c66d	-0.0336365
96	0xbd786f90	-0.06065327
97	0xbc446914	-0.011987943
98	0xbca683dd	-0.02032655
99	0x3beaaa83	0.00716144
100	0x3f72725d	0.94705755
101	0x3f400eb7	0.75022453
102	0x3f18b96a	0.5965792
103	0x3f8463b0	1.0342922
104	0x3f430e64	0.76193833
105	0x3f4343fa	0.762756
106	0x3ceb3c39	0.02871524
107	0x3f399e28	0.7250695
108	0x3f8d414f	1.1035556
109	0x3f910226	1.1328781
110	0x3fdaf2ef	1.7105387
111	0x3f92f499	1.1480895
112	0x3f49c2a6	0.78812635
113	0x3fb1ea02	1.3899539
114	0xbddaa57d	-0.10676096
115	0xbdc70d05	-0.0971928
116	0x3f582445	0.8443034
117	0x3f0f9c60	0.56097984
118	0x3f2d2f2c	0.67650104
119	0xbde8e1f2	-0.11371221
120	0x3f27160b	0.6526801
121	0x3f4c377b	0.79772156
122	0x3f1e2aca	0.6178404
123	0x3fc646ec	1.5490394
124	0x3f5f3a06	0.8719791
125	0xbde1d2e8	-0.11026555
126	0x3f4a7d4c	0.7909744
127	0x3d4a59cb	0.04940204

fc3.weight f4 [2, 128]
0	0x409ea831	4.958031
1	0x3c8033d1	0.015649708
2	0x408995a2	4.2995157
3	0x408a1afa	4.315793
4	0x408c55c3	4.385469
5	0x3d8b31fb	0.067966424
6	0xbd4c3520	-0.04985535
7	0x408c0a1e	4.376235
8	0x3fb9c27d	1.4512478
9	0x40820f9d	4.064406
10	0x3db9a22b	0.09064134
11	0xbf2b4960	-0.66908836
12	0x3db01ed7	0.08599632
13	0x40905de2	4.5114603
14	0x3bc604c0	0.0060430467
15	0x40738a84	3.8053293
16	0x407841db	3.8790195
17	0x40647bcc	3.570056
18	0x40948fb7	4.6425433
19	0x4082e4ed	4.090445
20	0x408d1b4f	4.4095836
21	0x3c824a0f	0.015904455
22	0x400ec8da	2.231009
23	0x3da3ccc4	0.0799804
24	0x3e1e699e	0.15469977
25	0xc0b058a2	-5.5108194
26	0x409a4223	4.8205733
27	0x40013638	2.0189342
28	0x4099cd0b	4.8062797
29	0x4087106b	4.220754
30	0x3ea6c7d9	0.32574347
31	0x4092dfbf	4.5898128
32	0xbc84f141	-0.01622832
33	0x3efc58fc	0.4928664
34	0xbd6fd848	-0.05855587
35	0x40967197	4.701366
36	0x4079e125	3.9043667
37	0xbfe48b71	-1.7855054
38	0xb984ad00	-0.00025305897
39	0xbdad0515	-0.08448235
40	0x40a88c3b	5.267118
41	0x40879ee7	4.2381473
42	0x40774226	3.8634124
43	0x3cfe3596	0.031031411
44	0x408cb6a7	4.3972964
45	0x3d90efcf	0.0707699
46	0x4049e1fd	3.1544182
47	0x401b0023	2.4218833
48	0x3f4a2b0e	0.78971946
49	0x407bccc0	3.934372
50	0x40923e6b	4.5701194
51	0xbd93a940	-0.07210016
52	0x408bcada	4.368512
53	0x407f9822	3.9936604
54	0xbd180ce1	-0.037121657
55	0x40a92f4f	5.287025
56	0xbada8578	-0.0016671857
57	0x3a2f2a67	0.00066820387
58	0xbd0ee001	-0.034881596
59	0xbda1e26b	-0.07904514
60	0x40a2ef4e	5.091712
61	0xbd2ff8e0	-0.042961955
62	0xbf8a5e59	-1.0810043
63	0xc096863a	-4.703885
64	0xbfcf84f0	-1.6212444
65	0xbbf85f4a	-0.0075797187
66	0x406b6705	3.6781628
67	0x409892b7	4.7679095
68	0xc00ed426	-2.2316985
69	0x40aeed7d	5.4664903
70	0xbbd4609d	-0.0064812438
71	0x3cb7f4cf	0.022455601
72	0xc03c646f	-2.94363
73	0x408c443b	4.383329
74	0xbd5a656e	-0.053319387
75	0xbd9b2d7c	-0.07577035
76	0x3a0d1be5	0.000538288
77	0xbc8ae85a	-0.016956497
78	0x4088c93e	4.2745657
79	0x4094d9cd	4.651587
80	0x3c3ae712	0.0114076305
81	0xbc467c3f	-0.0121145835
82	0x408bc558	4.36784
83	0x40a143a1	5.0395055
84	0x4080cb8e	4.024848
85	0xbcc16593	-0.023608005
86	0x3cd2bd4f	0.025725035
87	0x407135fa	3.7689195
88	0x3ef99fa6	0.48754615
89	0x40674fbc	3.6142416
90	0x40588f63	3.3837516
91	0x4085f6d6	4.1863813
92	0xbc44edbc	-0.012019571
93	0xc0102c91	-2.25272
94	0x3d94154b	0.07230624
95	0xbd731780	-0.059348583
96	0xbce67d14	-0.028135814
97	0xbda206a0	-0.0791142
98	0x3bb870d8	0.0056286864
99	0xbd8fbe42	-0.07018711
100	0x408a9cd4	4.331644
101	0x4091e27d	4.5588975
102	0x408c7994	4.389841
103	0x40858c55	4.1733804
104	0x3ffe306b	1.9858526
105	0x4087f597	4.248729
106	0xbc97f8a3	-0.018551176
107	0x408ea480	4.4575806
108	0x4085387c	4.163145
109	0x409bdc3d	4.8706346
110	0x40c888f4	6.266718
111	0x40b98b09	5.798222
112	0x40a289e9	5.0793347
113	0x40857ed2	4.171731
114	0xbcde7a81	-0.027158024
115	0x3d80f1a2	0.06296088
116	0x40996dea	4.7946672
117	0x40913691	4.537911
118	0x40923526	4.568988
119	0xbcfb3f89	-0.030669944
120	0x4090ca8b	4.5247245
121	0x403f41f9	2.9884017
122	0x4092f626	4.5925474
123	0x402e5d31	2.724438
124	0x406da81b	3.7133853
125	0xbda685a1	-0.081309564
126	0x408d12b2	4.408532
127	0xbc8b9b4f	-0.01704183
128	0x403e848e	2.9768405
129	0x3c59adb1	0.01328604
130	0x4087706c	4.2324734
131	0x40835d20	4.105118
132	0x40891960	4.2843475
133	0x3cb79a17	0.022412343
134	0xbd287d45	-0.04113509
135	0x40835497	4.104076
136	0x409c4c64	4.884325
137	0x4090955d	4.518233
138	0xbd03cab6	-0.032175742
139	0x401280c7	2.28911
140	0x3d82fe59	0.06396169
141	0x407b373b	3.925246
142	0xbd8fc495	-0.07019917
143	0x4092d635	4.5886483
144	0x409a2952	4.817544
145	0x406121e2	3.517693
146	0x40821f14	4.0662937
147	0x4088398a	4.257024
148	0x407c7c03	3.945069
149	0x3d8b9c17	0.06816881
150	0x409a996e	4.831229
151	0xbcaf7b80	-0.021421194
152	0x409dadfb	4.927488
153	0xc07167eb	-3.7719676
154	0x405b4ab4	3.4264345
155	0x409b4349	4.8519635
156	0x407dfc95	3.9685414
157	0x408864a9	4.2622876
158	0x40a3db4d	5.12052
159	0x40765edd	3.84954
160	0xbc6c60d4	-0.0144273825
161	0x4092ea41	4.5910954
162	0x3ca2cfe8	0.019874528
163	0x407918dd	3.8921425
164	0x409aec33	4.841333
165	0xc0afc0b5	-5.492274
166	0x3c6a79e2	0.014311286
167	0x3d6b9138	0.05751154
168	0x3fb56bd0	1.4173527
169	0x408732ae	4.2249365
170	0x408c103e	4.3769827
171	0x3d9002c7	0.0703178
172	0x4090cd00	4.5250244
173	0xbd35ced0	-0.044386685
174	0x4082761c	4.0769176
175	0x3ff4e8af	1.9133509
176	0xbfe89798	-1.8171263
177	0x40898cdd	4.298445
178	0x407b034d	3.9220765
179	0xbd406b79	-0.046977494
180	0x4085b1ee	4.17797
181	0x408c90bf	4.392669
182	0x3b33ad9e	0.0027416716
183	0x3f0d6bb0	0.55242443
184	0xbba568ae	-0.005047879
185	0x3db41121	0.087923296
186	0x3d2ca633	0.042150687
187	0xbd8600b4	-0.06543103
188	0xbe733f6a	-0.2375466
189	0xbd9119d5	-0.07085005
190	0xbfbe8939	-1.4885627
191	0xc0922bd0	-4.567848
192	0xbff95166	-1.9477966
193	0xbc238332	-0.00998001
194	0x4094274d	4.6297975
195	0x4074b8bc	3.8237753
196	0xbfbf1fe9	-1.4931613
197	0xbd314f46	-0.04328849
198	0xbc27b36b	-0.010235648
199	0xbd28cc6d	-0.04121058
200	0xbfdb46fd	-1.7131039
201	0x4085611c	4.168104
202	0xb97cfeaa	-0.00024127463
203	0x3c85687c	0.016285174
204	0xbd92f62e	-0.07175861
205	0x3ca1b38e	0.019738939
206	0x4080dadb	4.0267158
207	0x407bfc01	3.937256
208	0xbcc471a2	-0.023979966
209	0xbbfa030a	-0.007629757
210	0x40861297	4.1897693
211	0x40a7b3c1	5.2406926
212	0x408b78c5	4.3584924
213	0xbc649871	-0.0139523605
214	0x3ac7567c	0.001520827
215	0x408daebd	4.4275804
216	0xc024ee9b	-2.5770633
217	0xbf38ff12	-0.72264206
218	0x40980d81	4.7516484
219	0x4088f172	4.2794733
220	0x3c5aec6a	0.01336203
221	0x3f86df5d	1.0536915
222	0xbcffb69e	-0.031215008
223	0xbd6d3178	-0.057908505
224	0x3b4283fc	0.002968072
225	0xbcca46f7	-0.024692042
226	0xbab18aa8	-0.0013545351
227	0xbd243176	-0.040086232
228	0x4087f1fb	4.2482886
229	0x40783dc6	3.8787704
230	0x4083c0fa	4.1173067
231	0x3faac55a	1.3341477
232	0x40998947	4.7980075
233	0x4082bf76	4.0858717
234	0x3c73ab84	0.0148724355
235	0x40888bf8	4.267086
236	0x40986269	4.762013
237	0x40aee369	5.46526
238	0x404c7935	3.194898
239	0x4048b069	3.1357672
240	0x40472bff	3.1120603
241	0x409f8b50	4.985756
242	0xbcbe87b1	-0.023258062
243	0x3d6211a3	0.0551926
244	0x404a8d3e	3.1648707
245	0x4071fae4	3.7809381
246	0x4057e432	3.373303
247	0xbd22b9f8	-0.039728135
248	0x407dc2ea	3.9650216
249	0x40984885	4.7588525
250	0x407ae4f5	3.9202244
251	0x4004b7ed	2.073726
252	0x408ee8f3	4.465936
253	0xbba97220	-0.0051710755
254	0x4085642a	4.168477
255	0xbc6c4309	-0.014420279

fc3.bias f4 [2]
0	0x3fb8ffc8	1.4453058
1	0x3fe85077	1.8149556
